…
lname)s] - %(message)s'}}, 'handlers': {'console': {'class': 'logging.StreamHandler', 'formatter': 'simple', 'stream': 'ext://sys.stdout'}, 'file': {'class': 'logging.FileHandler', 'formatter': 'simple', 'filename': 'hydra_train.log'}}, 'root': {'level': 'INFO', 'handlers': ['console', 'file']}, 'disable_existing_loggers': False}}
[2022-04-20 22:37:02,052][fairseq_cli.train][INFO] - Wav2Vec2Seq2SeqModel(
  (encoder): Wav2VecEncoder(
    (w2v_model): Wav2Vec2Model(
      (feature_extractor): ConvFeatureExtractionModel(
        (conv_layers): ModuleList(
          (0): Sequential(
            (0): Conv1d(128, 512, kernel_size=(5,), stride=(2,), bias=False)
            (1): Dropout(p=0.0, inplace=False)
            (2): Fp32GroupNorm(512, 512, eps=1e-05, affine=True)
            (3): GELU()
          )
          (1): Sequential(
            (0): Conv1d(512, 512, kernel_size=(5,), stride=(2,), dilation=(2,), bias=False)
            (1): Dropout(p=0.0, inplace=False)
            (2): GELU()
          )
          (2): Sequential(
            (0): Conv1d(512, 256, kernel_size=(5,), stride=(2,), dilation=(4,), bias=False)
            (1): Dropout(p=0.0, inplace=False)
            (2): GELU()
          )
        )
      )
      (dropout_input): Dropout(p=0.0, inplace=False)
      (dropout_features): Dropout(p=0.1, inplace=False)
      (quantizer): None
      (project_q): None
      (encoder): TransformerEncoder(
        (pos_conv): Sequential(
          (0): Conv1d(256, 256, kernel_size=(128,), stride=(1,), padding=(64,), groups=16)
          (1): SamePad()
          (2): GELU()
        )
        (layers): ModuleList(
          (0): TransformerSentenceEncoderLayer(
            (self_attn): MultiheadAttention(
              (dropout_module): FairseqDropout()
              (k_proj): Linear(in_features=256, out_features=256, bias=True)
              (v_proj): Linear(in_features=256, out_features=256, bias=True)
              (q_proj): Linear(in_features=256, out_features=256, bias=True)
              (out_proj): Linear(in_features=256, out_features=256, bias=True)
            )
            (dropout1): Dropout(p=0.0, inplace=False)
            (dropout2): Dropout(p=0.1, inplace=False)
            (dropout3): Dropout(p=0.0, inplace=False)
            (self_attn_layer_norm): FusedLayerNorm(torch.Size([256]), eps=1e-05, elementwise_affine=True)
            (fc1): Linear(in_features=256, out_features=512, bias=True)
            (fc2): Linear(in_features=512, out_features=256, bias=True)
            (final_layer_norm): FusedLayerNorm(torch.Size([256]), eps=1e-05, elementwise_affine=True)
          )
          (1): TransformerSentenceEncoderLayer(
            (self_attn): MultiheadAttention(
              (dropout_module): FairseqDropout()
              (k_proj): Linear(in_features=256, out_features=256, bias=True)
              (v_proj): Linear(in_features=256, out_features=256, bias=True)
              (q_proj): Linear(in_features=256, out_features=256, bias=True)
              (out_proj): Linear(in_features=256, out_features=256, bias=True)
            )
            (dropout1): Dropout(p=0.0, inplace=False)
            (dropout2): Dropout(p=0.1, inplace=False)
            (dropout3): Dropout(p=0.0, inplace=False)
            (self_attn_layer_norm): FusedLayerNorm(torch.Size([256]), eps=1e-05, elementwise_affine=True)
            (fc1): Linear(in_features=256, out_features=512, bias=True)
            (fc2): Linear(in_features=512, out_features=256, bias=True)
            (final_layer_norm): FusedLayerNorm(torch.Size([256]), eps=1e-05, elementwise_affine=True)
          )
        )
        (layer_norm): FusedLayerNorm(torch.Size([256]), eps=1e-05, elementwise_affine=True)
      )
      (final_proj): None
    )
    (final_dropout): Dropout(p=0.1, inplace=False)
  )
  (decoder): Sequential(
    (0): Linear(in_features=512, out_features=128, bias=True)
    (1): ReLU()
    (2): Dropout(p=0.1, inplace=False)
    (3): Linear(in_features=128, out_features=2, bias=True)
  )
)
[2022-04-20 22:37:02,053][fairseq_cli.train][INFO] - task: AudioFinetuningTask
[2022-04-20 22:37:02,054][fairseq_cli.train][INFO] - model: Wav2Vec2Seq2SeqModel
[2022-04-20 22:37:02,054][fairseq_cli.train][INFO] - criterion: CrossEntropyCriterion
[2022-04-20 22:37:02,054][fairseq_cli.train][INFO] - num. shared model params: 3,940,354 (num. trained: 3,940,354)
…
